saved_models/random, drag, small targets radial/model_Agent=PuckworldAgent_radial_epsilon=0.900_eps_decay=1.000_N_steps=400000_N_batch=80_N_hidden_layer_nodes=50_target_update=500_double_DQN=False_features=DQN_NL_fn=tanh_loss_method=L2_advantage=True_beta=0.100_14-46-05.model (torch_old, 3141 bytes, 4 tensors)

lin1.weight f4 [50, 7]
000000 e5 eb 9b be 6a 8b 77 3e 3e d7 fe bd 6d 91 4e bf
       -0.3045341 0.24174276 -0.12443398 -0.8069065
000010 79 aa ce bd 2d b7 d3 3e 0f 6c 4d bf 07 a2 b5 ba
       -0.10091109 0.4135069 -0.8024301 -0.0013857492
000020 c6 b8 44 3b 3a 60 d3 3a 1e 0f e1 3b 8c a8 f9 38
       0.003001736 0.00161267 0.006868257 0.000119046395
000030 65 4e f0 3a ab a4 24 3b 1d 66 8c bd e7 70 d2 3e
       0.001833391 0.0025122564 -0.06855414 0.41101763
000040 a3 be 61 3e 6d 07 78 bd 5d ed e2 bd 2c 2f 2d 3e
       0.22045378 -0.060553957 -0.1108043 0.16912526
000050 3f ff f9 be 63 c8 c3 bc eb ba 90 bc c7 49 54 bd
       -0.4882755 -0.023899263 -0.017667254 -0.051828172
000060 d0 7b a8 bd 00 33 d2 bd 88 f8 1e be 88 8b 92 be
       -0.0822674 -0.10263634 -0.15524495 -0.2862208
000070 74 5d 07 bf 92 d3 99 3e b4 7e 8d 3e 8c 7c 11 3f
       -0.52876973 0.30044228 0.2763573 0.5683067
000080 71 9a 4c bf d9 c6 c8 3e 76 ec 10 3f 64 6c a2 3d
       -0.7992316 0.3921421 0.5661081 0.0793083
000090 9a b2 30 be a3 be 09 bd a2 b3 87 3e 24 9c ae bd
       -0.17255631 -0.03362907 0.26504236 -0.08525875
0000a0 04 d4 e6 be b3 3d 02 3e 29 ce d4 3f 95 6f 23 40
       -0.4508363 0.12718849 1.6625415 2.5536854
0000b0 83 41 89 3e 2b 03 c7 3f 58 66 54 3f 02 a7 13 bf
       0.26807794 1.5547842 0.82968664 -0.5767671
0000c0 03 42 05 40 40 5c c3 bd 44 21 4d be cb f7 5e be
       2.082154 -0.0953908 -0.20032221 -0.21774213
0000d0 c0 70 cf bf ed 4f 6a bd 03 31 0e bf 49 76 5f 3f
       -1.6206284 -0.05720513 -0.55543536 0.87289864
0000e0 a6 4c 03 bc 5d 3b 94 3d 3e d6 08 be 3d 30 a8 be
       -0.00801388 0.07237885 -0.13362977 -0.32849303
0000f0 c1 a9 fa 3d 88 44 57 bf b2 eb c7 bf cc de e5 bd
       0.12239409 -0.84088945 -1.5618804 -0.11224136
000100 7a 8a 58 bf 2f 38 03 be af 65 c9 be 48 05 20 c0
       -0.845863 -0.12814401 -0.3933539 -2.5003223
000110 e7 76 e5 3e 6a 98 0a c0 af bd 9b 3c 56 8f ce 3b
       0.44817278 -2.1655526 0.019011347 0.006303708
000120 8e ea f6 3a b7 1f 82 b8 ab 45 b6 3a 5f 89 db bb
       0.0018838213 -6.2047904e-05 0.0013906261 -0.0066997255
000130 b1 aa 83 bb 1e 24 09 40 a0 85 8e 3e f9 bd 69 3e
       -0.0040181507 2.1428294 0.27836323 0.22826375
000140 e3 e1 ab 3f 71 85 ea 3d 1f 48 26 c0 f5 ff b9 be
       1.342831 0.11451233 -2.598152 -0.36328092
000150 c2 c7 c0 3e 24 53 13 bd 3d ec 30 bf 02 86 95 3e
       0.37652403 -0.03596796 -0.6911047 0.29203802
000160 b0 c5 68 3e c8 01 c9 3d 63 67 fb 3d 5d 0f 1a 40
       0.22731662 0.09814793 0.12275579 2.4071877
000170 d3 1a ac 3e 8f 1b 05 c0 f1 90 e8 3f 79 e0 59 3e
       0.33614215 -2.079807 1.8169233 0.21277036
000180 22 88 2e c0 81 ff 1d bf b9 66 9a bb 7b 2c 3e 3b
       -2.727059 -0.61717993 -0.0047119525 0.0029018212
000190 d3 b5 c4 3a aa 68 a4 3b 38 0b 3b 39 88 b9 94 3b
       0.0015007801 0.0050173597 0.00017837889 0.0045387186
0001a0 29 05 0a 3b c1 2a a7 3d 02 ef 33 3d 7a 4e 1f 3d
       0.0021060205 0.081624515 0.043929107 0.0388932
0001b0 5b a3 4b 3e 70 ab bc bd 1d 9c 12 bd 10 5b 9b 3e
       0.19886534 -0.092123866 -0.035793412 0.30342913
0001c0 06 bd 4e 40 09 3b e1 c0 ba 05 d2 bb 51 b5 7f 3f
       3.230287 -7.0384564 -0.006409374 0.9988604
0001d0 15 24 e9 bf 33 c3 4a c0 e0 69 d9 40 ba 48 98 bc
       -1.8214136 -3.168164 6.794174 -0.018589366
0001e0 96 2e b4 3a 3d 96 8d 3b e0 4a a7 3c 16 d1 ba 39
       0.0013746794 0.0043208883 0.020421445 0.00035632466
0001f0 00 07 b8 3b 57 6e 2f 3c 6f 71 22 bf cc e5 d2 be
       0.005616069 0.010707459 -0.63454336 -0.41190946
000200 02 1a 49 3d 3a d6 83 be ea 6e d6 3e 6b 02 96 bf
       0.04909707 -0.2574938 0.41881496 -1.1719488
000210 3e f0 e0 bf 27 89 84 bc 07 da bc bb 3e f1 61 bb
       -1.7573316 -0.01617868 -0.0057632956 -0.0034476067
000220 56 16 53 bb 53 47 31 bb f9 e9 10 3b 58 e1 68 ba
       -0.0032209358 -0.002705057 0.0022112115 -0.00088836765
000230 16 18 8f 40 db be 9b 3f 7a a8 b8 be 57 6b 06 40
       4.47169 1.216762 -0.36066037 2.1003015
000240 da 72 cf 3e 96 ec 9b c0 fc 4f 9a bf 8e 5f 7d be
       0.40517312 -4.87263 -1.2055659 -0.24743482
000250 08 d8 28 40 60 41 14 3e f6 a9 2a 3e 76 55 3c 40
       2.6381855 0.14478064 0.16666397 2.9427161
000260 08 fd 4c 3e 40 30 85 bf 62 41 31 3f 48 48 b9 3e
       0.20018399 -1.040535 0.6924039 0.3618796
000270 a9 14 a4 bd bd 46 4b 3f 2b 4b 92 be f9 db 6c bf
       -0.08011753 0.79404813 -0.28572974 -0.9252315
000280 9a 27 29 bd e0 7d 11 3f 8b fc 38 bf 2f 02 03 bf
       -0.041297533 0.56832695 -0.7226035 -0.51175207
000290 c6 35 ee bc 49 08 39 3e 11 d7 c4 be 8b 81 51 3f
       -0.029078376 0.18069567 -0.38445333 0.8183829
0002a0 11 04 4d bf c2 94 fa 3b 1f 49 b4 3d 95 c4 b4 3d
       -0.8008433 0.007647128 0.08803009 0.088265575
0002b0 68 f1 3a c0 37 2d 04 3f ab 2f b0 bf bd f6 89 3c
       -2.9209843 0.5163149 -1.3764547 0.016841287
0002c0 7d 3d 05 3c 91 99 7f 3b aa 35 45 3b 00 78 45 3b
       0.008132336 0.0039001445 0.00300918 0.003013134
0002d0 57 77 64 bb 9a 9c 18 3a 51 b3 ad 3d 31 63 1e 3d
       -0.003486117 0.00058216753 0.084814675 0.038668815
0002e0 b7 d7 39 be 87 cb fd be 0f cb 10 3d 8b 4a 89 3d
       -0.18148695 -0.49569342 0.0353499 0.06703671
0002f0 70 85 e3 be de 87 65 3e 25 5c e1 3d e4 1e 00 bd
       -0.44437742 0.2241511 0.11003903 -0.03127946
000300 0f 59 61 3f 94 c9 9a 3d 75 ac fa 3e c4 2f a1 bf
       0.8802652 0.07557979 0.489597 -1.2592702
000310 53 f7 d2 3f d1 9a b3 3e 55 d6 49 3f 9e 8e 62 3f
       1.6481727 0.35079053 0.7884267 0.88498867
000320 5f ac 88 3e 7e e9 f0 bf 0e 48 a9 be 5e 85 87 3c
       0.2669401 -1.8821256 -0.33062786 0.016543087
000330 78 1b ba 3b 7d 60 62 3b b8 d6 47 3b b6 ea 34 3b
       0.005679544 0.0034542375 0.0030492973 0.002760572
000340 a5 0c 15 bb 61 2b 22 3a a6 b8 48 bb 9d f9 13 3b
       -0.0022743132 0.00061862735 -0.0030627637 0.00225792
000350 24 e1 a4 3a 34 ea eb 3b 2d 1b ad b8 6b 26 25 3b
       0.0012579304 0.00719955 -8.254345e-05 0.00251999
000360 78 eb 1d 3b b6 58 8b 3d 8b 38 93 bd c6 7e 90 3b
       0.002409665 0.0680403 -0.07188519 0.004409644
000370 79 44 fa 3e 9f c1 21 be 4f c8 78 be f8 b9 8c 3e
       0.48880365 -0.15796517 -0.24295162 0.27485633
000380 9c e8 43 3c 72 de 18 be e7 41 b4 bd 28 6f 1c 3e
       0.011957314 -0.14928606 -0.088016324 0.15276778
000390 f2 36 5b bd 60 41 00 bd 3b e0 be 3e 6f 1f 0e bd
       -0.053519197 -0.031312346 0.3728045 -0.034697946
0003a0 c3 24 99 40 12 eb 95 3e 37 e7 27 be f1 0d 21 40
       4.7857375 0.29280907 -0.16396795 2.516476
0003b0 99 db ef 3e 30 bf 7f c0 98 05 d4 3e b6 b5 d0 bd
       0.46847227 -3.9960442 0.41410518 -0.101909086
0003c0 56 77 cd 3d e9 8c 3f 3e be fa e8 3e 42 92 49 bf
       0.10032527 0.18706097 0.455038 -0.78738797
0003d0 49 55 97 be 96 bc b0 bf 6e 34 c8 3f dd 22 c6 3a
       -0.29557255 -1.3807552 1.5641 0.0015116591
0003e0 e5 ac 54 3d 3d 76 23 40 2e c4 b0 3f 78 26 3c 3e
       0.051922698 2.5540917 1.3809869 0.1837405
0003f0 04 a6 94 bc f2 5e d0 bb ca 45 92 bb ae 85 29 bc
       -0.018145569 -0.0063589746 -0.004463886 -0.010346813

lin1.bias f4 [50]
000000 6a cd 16 3f f7 35 82 b9 cf fb 36 c0 9e 40 dc 3f
       0.58907187 -0.0002483574 -2.8591192 1.720722
000010 16 e5 3d 40 5b 27 3a 40 3c 39 88 bf 6e b2 3b 40
       2.9671073 2.908652 -1.0642467 2.9327655
000020 bb 45 3a 40 85 ad 8e 3e 6a 3b 8c ba ff a0 03 3f
       2.910506 0.2786676 -0.0010698859 0.51417536
000030 d8 4d 1c c0 8f 52 7d bc 02 31 fe b8 11 5b 37 c0
       -2.4422512 -0.015461578 -0.00012120792 -2.8649333
000040 8a 8d 8f 3f eb d7 db 3a 01 e3 2a 40 2c 03 f4 3a
       1.1215069 0.0016772723 2.6701052 0.0018616668
000050 65 a8 8b bf 49 ad 52 bf 5f 06 08 40 ea 69 4e 3e
       -1.0910765 -0.8229566 2.1253889 0.2015759
000060 1e b9 0a 3d f1 14 e4 ba a4 ae 52 40 0b 3b 07 c0
       0.033867948 -0.001740126 3.2919092 -2.1129787
000070 91 b9 b8 bd 54 33 f6 ba ec b7 e2 b8 e4 b8 55 c0
       -0.09019769 -0.0018783608 -0.00010810778 -3.3394098
000080 b5 92 5e bd a2 76 27 3f 57 e0 11 3f 1a f4 6e bf
       -0.05433913 0.65415394 0.5698294 -0.9334122
000090 4f 23 3d 3b cb be 18 3d 47 33 ca 3e 91 3e cb be
       0.0028860157 0.03729133 0.39492247 -0.39696172
0000a0 2c 56 ee be c9 a1 40 c0 66 ca a9 bf ea 7c 28 3b
       -0.4655012 -3.0098746 -1.3264892 0.002570922
0000b0 99 db 1a c0 0b 29 43 3b fa 67 5c 40 b6 e0 cd 3e
       -2.4196532 0.0029779102 3.4438462 0.40210503
0000c0 86 91 27 40 3c 31 4b 3f
       2.618257 0.79372

lin2.weight f4 [4, 50]
000000 03 15 8a 3d 61 61 28 ba db ed ca bf 56 a2 8b 3f
       0.06742289 -0.0006423202 -1.5853838 1.0908916
000010 e6 43 da 3f dd 28 b7 3f a6 c9 42 3e 1a 11 04 40
       1.7051971 1.4309345 0.19022235 2.0635438
000020 0b ff 00 40 9d a3 a5 be a9 39 15 bb 90 b5 84 3f
       2.0155666 -0.3235139 -0.0022769964 1.0367908
000030 9c 5d a8 bf ca 6a 77 be 91 ea a4 b9 ac a3 cd bf
       -1.3153567 -0.2416183 -0.00031455283 -1.6065574
000040 00 a3 84 3e 28 fd ac ba 81 61 07 40 f2 67 26 3b
       0.2590561 -0.0013198005 2.1153262 0.0025391546
000050 fe 2d 05 bf ac c0 b0 be 34 db ec 3f 77 0f eb 3e
       -0.52023304 -0.34521997 1.8504395 0.45910236
000060 63 fe e6 3d 64 9e 59 bb cb ef f2 3f da 4b 89 bf
       0.11278989 -0.003320598 1.8979429 -1.0726273
000070 62 e0 3e be 1a 96 23 bb e0 e4 f0 b9 4b ca e8 bf
       -0.18640283 -0.0024961294 -0.00045946892 -1.8186735
000080 3d 9e f6 bc 19 55 ce 3e 08 57 98 3e 9a 05 7f 3e
       -0.03010475 0.402993 0.297539 0.2490448
000090 9c bb 30 3b 8e 7d d3 be 0a 40 fa be 9a 7b 80 be
       0.0026967293 -0.41306728 -0.48876983 -0.250943
0000a0 c0 25 cf 3e dd f9 f4 bf ef db cb be cd 99 2a 3b
       0.40458488 -1.9138752 -0.39816234 0.0026031614
0000b0 a9 4b 3c bf 49 f8 70 3b 68 39 f4 3f 82 41 25 bf
       -0.7355295 0.0036769083 1.9080019 -0.6455308
0000c0 22 fc 06 40 b8 61 d6 3e 86 87 37 3f 15 84 60 ba
       2.109139 0.41871428 0.7169117 -0.00085646036
0000d0 e5 87 a7 bf 9f 94 8a 3f 5a d5 f3 3f 15 0d c7 3f
       -1.3088347 1.0826606 1.9049485 1.5550867
0000e0 9c cd 2a 3e 75 62 b0 3f 74 64 08 40 46 45 cc be
       0.16679996 1.3780047 2.1311312 -0.398966
0000f0 10 41 6c bb 53 36 11 3f 87 98 df bf c2 cf d6 3e
       -0.0036049522 0.5672352 -1.7468423 0.41955382
000100 50 43 d7 b9 5b 4c c9 bf e1 3a a7 3e ee 65 38 3b
       -0.00041058147 -1.5726427 0.3266211 0.0028136927
000110 76 67 ee 3f 75 ae 90 3b f7 8c 3c bf 42 cb f8 be
       1.8625324 0.004415328 -0.73652595 -0.48592573
000120 0a 33 6e 3f e6 9b aa be 7c de 28 bf d4 6a 8e bb
       0.9304663 -0.33322066 -0.65964484 -0.004346231
000130 4f 72 fd 3f 04 b2 ac bf 48 78 89 3e 39 e9 91 bb
       1.9800509 -1.3491826 0.2684958 -0.004452851
000140 fe 65 d6 b9 ad 27 ed bf e0 d2 1f bc e4 e1 57 3e
       -0.0004089325 -1.8527733 -0.009754866 0.21082264
000150 5d 90 73 3d 6d ec e3 3e 5e 44 cb 3b 53 b4 87 3d
       0.059463847 0.44516316 0.0062032184 0.06626191
000160 7e f6 28 bf 80 44 97 be 68 29 93 3d ab e9 fb bf
       -0.6600112 -0.2954445 0.07185632 -1.9680685
000170 d1 10 c2 be 41 de f9 3a d6 90 f3 bf 29 e1 d6 3b
       -0.37903455 0.0019063429 -1.9028575 0.006557603
000180 96 2f f2 3f 9a 68 f1 3c 31 e2 ec 3f f5 47 ba bc
       1.8920772 0.029468823 1.8506528 -0.02273939
000190 07 18 9f 3e 5c fa dc 3a 9f af 08 c0 20 74 76 3f
       0.3107302 0.0016859281 -2.135719 0.9627094
0001a0 ec 0e ca 3f f8 56 03 40 0d d1 42 3e a5 7e f1 3f
       1.5785804 2.0521832 0.19025059 1.8866774
0001b0 f8 f2 0f 40 68 9b a6 be 00 fd 11 bb 33 06 40 3f
       2.2492046 -0.3254044 -0.0022276044 0.7500946
0001c0 2d 98 2f bf da 9f 3e 3d f4 51 d1 3a 76 bf d3 bf
       -0.68591577 0.046539165 0.0015969859 -1.6542804
0001d0 d2 45 79 3e 44 c8 09 3c 29 a6 f0 3f 90 0f 95 3b
       0.2434304 0.008409563 1.8800708 0.0045489743
0001e0 85 71 03 bf 2b 22 c4 be 05 31 e5 3f f7 7a 74 be
       -0.5134509 -0.38307318 1.7905585 -0.23875032
0001f0 ef a2 5e be 28 9a 9c bb ad 2b e0 3f f8 5d a4 bf
       -0.21741842 -0.004779119 1.7513329 -1.2841177
000200 d0 6a 8f be 9e 46 97 bb e2 97 0e 3b 7f 4b e9 bf
       -0.2801118 -0.0046165725 0.002175801 -1.8226165
000210 a5 6c 86 be ae 64 97 3e 80 bc e8 3e e5 a2 96 3e
       -0.26254764 0.29569 0.45456314 0.29421154
000220 24 e2 30 3b b6 85 62 be c0 61 0b bf 77 e1 87 be
       0.002699026 -0.22121319 -0.5444603 -0.26539204
000230 3b e4 37 3e 4e 91 b7 bf 8f 2a dd be 90 ab cf 38
       0.17958157 -1.4341218 -0.43196532 9.902485e-05
000240 b5 1f cb bf df de 35 3b d6 34 f8 3f a2 e1 8b 3d
       -1.5869051 0.002775125 1.9391124 0.068301454
000250 02 4b d9 3f d9 ef 43 be 6a f7 a7 3e 42 f9 8a bb
       1.6976016 -0.19134463 0.3280595 -0.0042411396
000260 ab ce e4 bf 75 94 86 3f 14 23 d2 3f c5 f0 d6 3f
       -1.787557 1.0514055 1.6416955 1.6792227
000270 a5 da 38 3e 7b 37 eb 3f 5c 1a 10 40 02 22 93 be
       0.18052156 1.8376306 2.2516088 -0.28736883
000280 a3 c7 bb ba 06 dd 5c 3f 9b 71 c8 bf a0 ae cd bc
       -0.0014326464 0.86274755 -1.565967 -0.025107682
000290 f1 ba 3d bb 89 ba c7 bf 62 f6 4c 3e ec 13 3f bc
       -0.0028950537 -1.5603801 0.20015863 -0.011662465
0002a0 cd bc eb 3f 01 8f 8a 3b b0 6a e1 be 72 79 d0 be
       1.8416992 0.004228473 -0.4402671 -0.40717655
0002b0 1a eb f3 3f fe 4b 88 bd 69 e5 39 be e4 6e 79 bb
       1.9056122 -0.06655119 -0.1815392 -0.003806048
0002c0 73 8c f3 3f 31 ba 8a bf 6f 49 03 bf ff 63 82 bb
       1.9027237 -1.0838071 -0.51283926 -0.0039792056
0002d0 a9 fa 84 bb 23 c7 d0 bf 8f f2 8e 3d d6 0a 93 3e
       -0.0040582013 -1.6310772 0.06979858 0.28719205
0002e0 6b 6e dc 3e 5e 76 97 3e d6 ce 20 3c 52 59 6e be
       0.43052992 0.29582494 0.0098149385 -0.2327626
0002f0 e5 97 f7 be 3d 80 84 be 2b 0b 29 3e 5f 64 dd bf
       -0.48358074 -0.25879088 0.16508166 -1.7296256
000300 73 8e d6 be 09 58 5c 3c ee 4c ac bf 04 dd 4b 3c
       -0.41905555 0.013448724 -1.3460977 0.012442831
000310 de ba fa 3f 82 71 bc 3d dc 24 e6 3f cc 48 27 bd
       1.9588277 0.092013374 1.7979999 -0.04084091

lin2.bias f4 [4]
000000 0f 38 05 40 5a d5 08 40 21 12 04 40 2b 94 e8 3f
       2.0815465 2.138022 2.0636065 1.8170217
